materials/Group_Project_mnist-android/app/src/main/assets/mnist.tflite (tflite, 43424 bytes, 4 tensors)

sequential_10/conv2d_10/Conv2D/ReadVariableOp f4 [1, 3, 3, 24]
00000000: a599 38be 1f5d 99bd c569 a5be bd38 b4bf
00000010: 0337 363e 0b8e fb3d 5f85 bd3e 0fce 743e
00000020: 8a40 b2bd e3d6 453e e32f aabd 219e a93c
00000030: 6321 a0bc e0be 363e 1935 8bbf 343c 393e
00000040: 606f 92be 1d97 39bd eceb 683e 36f0 c4bd
00000050: a295 22bf d415 c4be 285a 2fbd 4d19 3e3f
00000060: 604f dcbd 87a1 873e 6473 7bbe 1f4f 39bf
00000070: f104 f3bc 9dd8 893e a270 adbd d61e cb3d
00000080: 4834 553e 7b8a 13bb 48fd 543e 960b 723e
00000090: 3809 e83d 8f87 a1be fe54 78bd 0168 373d
000000a0: 4b1a 5d3e c830 b5bc 328d 2e3e 6551 c83e
000000b0: ea62 c0bd 86ae e73c 0aac 523e 28fc 92bd
000000c0: 53cf bb3e b372 cd3c 4c40 483e cd1b 54bf
000000d0: ae87 32bf bba0 b53e 98b4 97be e6d5 ebbd
000000e0: a12a 5fbd 988a 26be 63b7 e5bd ee22 753e
000000f0: abe2 9dbd 8e40 21bd 11a3 923e 75dd 18be
00000100: 5076 eb3d 57ba d53d 3156 4cbe 652d 893d
00000110: df7c d33e 7ea1 7c3e aa9b 1dbd 8c45 87bf
00000120: edc5 2f3d f5a7 34bd 497f c83c bbc9 543e
00000130: ef50 b03e 3057 48be 796a 053e 964f 803d
00000140: ac15 22be e734 0d3e 2f0b 80be 0d08 efbe
00000150: b256 b6bd 03a5 ebbd 6627 40be ef14 66bc
00000160: 2097 d9bd b05f b0be ecf3 73be b209 d53e
00000170: ce2b ae3d cde2 983e 7b49 44be 34ae 8e3e
00000180: c941 113e 5aa3 bd3d 8c25 9b3e 8f8d 083e
00000190: 4b53 2c3c 645f 193e 5741 b73d 91e5 17be
000001a0: 8558 433e af08 2abd f9a3 933e 091a 553d
000001b0: 2524 1ebd 70f7 15be 97ae 2cbe 060e 983e
000001c0: 4639 ed3d 9cda aa3c 3bbe 583e b052 b23e
000001d0: 05a7 233e 5e5c 393e 55d9 1abe 02af 263e
000001e0: c77f 38bd 5f54 84be deb7 303e 1854 30bf
000001f0: 02b1 43bf 9454 be3e c096 05be b890 67bd
00000200: 7e02 54be 760c 3ebe 85c2 73be 3b5a 80be
00000210: 8d86 133c a4de 743e 34c6 253e ffcd 0cbe
00000220: bde2 08be 8cb8 d03d 167e 5a3e 2f41 08bf
00000230: 49a3 21bd 6398 603c 5a2f 0f3d b42b 9cbf
00000240: 8ee6 953e 7cd0 d33d 9ff4 383e 7080 2e3f
00000250: f4f3 053e 1d1c 07bf 0412 9cbd 3843 443d
00000260: a821 dabd 5ab2 a03d 0e09 2cbe a045 78bf
00000270: 5fc8 c23d 1548 623e e2a7 c7bd 6f1b 99be
00000280: f1f0 1d3e e741 63bf 9f55 713a 519d 98be
00000290: 8e35 1e3e aa89 b03d db82 e43d ec4f 44bf
000002a0: 36e5 c8bd c994 8d3d 8dd1 abbd 9c04 113f
000002b0: f250 98be bb23 e3be 1ae3 4d3e 7a7d bd3d
000002c0: 88d9 b83d 8239 353e cf7a a63e 533f edbd
000002d0: fa33 7a3d 3e2d f43d d721 5c3e 1670 35bd
000002e0: c18e 133e a805 4bbe 3817 1ebe 0510 31bf
000002f0: e148 6c3e 5700 9dbe ca55 313d 94c2 8ebf
00000300: efe9 9c3c 717f b03d ea7a 20be a1c4 083e
00000310: 706a 30bf 28bf 05bf 89df 9b3e 664a a03e
00000320: 091e 2b3e 3515 a73c f7a6 d9bd b0ce f4be
00000330: f64a 01be 7c21 233e 1f53 043d 9461 b53e
00000340: b053 dcbc c89d 693e ec8a 453e 38d2 04be
00000350: 98d7 18bf 79d0 f6bd 9b79 9c3d 3991 39bf
-0.1802736 -0.074884646 -0.32307258 -1.4079815 0.17794423 0.12282952 0.37015817 0.2390673
-0.08703716 0.19320254 -0.08309915 0.020705285 -0.01954717 0.1784625 -1.0875579 0.18089372
-0.28600597 -0.04531013 0.22746247 -0.09616129 -0.6350957 -0.38297904 -0.04281059 0.74257356
-0.10757327 0.26490423 -0.24555737 -0.72386354 -0.029665442 0.26923075 -0.08468749 0.09917991
0.20820725 -0.002251296 0.20799744 0.23637232 0.11329883 -0.31548735 -0.06062793 0.04477692
0.21592061 -0.022117987 0.17046049 0.391246 -0.09393866 0.028281461 0.2057344 -0.07177001
0.36681613 0.025079107 0.19555777 -0.8285492 -0.6973828 0.3547419 -0.2962997 -0.11515407
-0.054484013 -0.16263807 -0.11216619 0.23939106 -0.07709249 -0.039368205 0.28640035 -0.14928229
0.11497176 0.10435932 -0.19954754 0.066981114 0.41306207 0.2467098 -0.03847853 -1.0568099
0.042913366 -0.04410549 0.024474757 0.20780079 0.34436747 -0.1956451 0.13028897 0.0626518
-0.1582858 0.13789712 -0.25008532 -0.4668583 -0.089032546 -0.11506083 -0.1876503 -0.014043077
-0.10624528 -0.34448004 -0.23823518 0.4160896 0.08504449 0.29860535 -0.19168656 0.2786728
0.14185251 0.092596725 0.30302083 0.1333525 0.0105179055 0.14977795 0.089480095 -0.14833666
0.19076736 -0.041512188 0.2883604 0.052026782 -0.03860869 -0.14645171 -0.16863476 0.296982
0.1158319 0.020856194 0.21166317 0.3482871 0.15981682 0.18101642 -0.15121968 0.16277698
-0.045043733 -0.2584562 0.1725764 -0.68878317 -0.7644197 0.37173903 -0.13045788 -0.0565345
-0.20704076 -0.18559441 -0.23804672 -0.2506884 0.009004247 0.23913056 0.1618889 -0.13750456
-0.13367744 0.101914495 0.2133716 -0.5322446 -0.03946236 0.013708207 0.034957267 -1.2200837
0.29277462 0.103424996 0.18062066 0.6816473 0.13081342 -0.5277727 -0.07620624 0.047915667
-0.10650951 0.07846518 -0.16800329 -0.9698124 0.09510874 0.2209781 -0.09748818 -0.29903743
0.15423943 -0.88772434 0.0009206179 -0.29807523 0.15450117 0.08620007 0.11157771 -0.7668445
-0.098093435 0.06913144 -0.08389578 0.5664766 -0.29749256 -0.44363198 0.20106164 0.092524484
0.09025866 0.17697719 0.3251557 -0.11584344 0.061084725 0.11922692 0.21497284 -0.044296347
0.14409925 -0.19826376 -0.15438545 -0.6916507 0.23074676 -0.30664322 0.043294705 -1.115313
0.019154517 0.086180575 -0.15671888 0.13356258 -0.6891241 -0.52244806 0.3044398 0.31306762
0.16710676 0.020395854 -0.10627549 -0.4781394 -0.12626252 0.15930742 0.032305833 0.3542601
-0.026895374 0.22814095 0.19291276 -0.12970817 -0.5970397 -0.12051482 0.07640382 -0.7248722

sequential_10/conv2d_10/Conv2D_bias f4 [24]
00000000: cd73 b0be 59ff 90be 2ab1 abbe 2884 963e
00000010: 1d3a 52be 7823 37be cc05 f6be 119f cfbe
00000020: 28a8 7fbe 9af2 98be b8ad 02be 11c8 a3bd
00000030: 04a3 55be 0fc4 a2be 4c89 90be 7d39 abbe
00000040: c4a1 aabe c7c4 87be c54a bcbe f5ef e4bd
00000050: 5849 15bc 1664 88bd 0ac0 b5be f313 f63d
-0.3446335 -0.28319815 -0.33533603 0.29397702 -0.20529981 -0.17884624 -0.48051298 -0.40551046
-0.2496649 -0.2987259 -0.12761581 -0.07997144 -0.20862967 -0.31790206 -0.2822975 -0.33442298
-0.33326542 -0.26517317 -0.36775795 -0.11178581 -0.009111725 -0.06659715 -0.35498077 0.12015524

sequential_10/dense_10/MatMul/ReadVariableOp/transpose i1 [10, 4056] scale=0.039069504 zero_point=0
00000000: ff01 00f5 ff00 00ff 00ff ff00 ff00 ff00
00000010: ff00 0100 fdff 01f5 ffff 01f7 fe00 fffe
00000020: ff00 ff00 00fd ffff 00ff 00ff fb00 00f6
00000030: feff fff5 fe01 fdfb fbff fa00 00f6 fcfc
00000040: fffc fe01 fc00 fef6 f9fb fbf5 ffff f7f8
00000050: f9f9 f800 fce9 f5f9 fbf5 f801 f3fe faf6
00000060: f8f6 f2f4 f602 f2f7 f1f0 e400 f8ec eaf2
00000070: f3f1 f200 e4f5 f8f7 f6f7 e9f6 ee03 f0f6
00000080: f4ed e700 f8ee e7f2 f0f1 f0fc e7ec f8f6
00000090: eff4 dff5 ec02 edf4 f1ed ed01 faed e8f3
000000a0: eaf3 f0fb f1e4 f7f7 ebf4 dff2 e900 edf8
000000b0: f3e6 f000 f9ed edf5 e6f7 f0f8 ebe1 f6f6
000000c0: f1f4 dff2 ebff eff7 f4ea ed00 f8eb f0f7
000000d0: e9f9 f5f3 eedc f7f8 f4f6 e8f2 ee00 f6f9
000000e0: faee f4fe faeb f4fa f0fa fbf8 e6de f9f6
000000f0: f9f9 f5f5 f500 f8fa faf3 f5ff f9f0 f7fc
-0.039069504 0.039069504 0.0 -0.42976454 -0.039069504 0.0 0.0 -0.039069504
0.0 -0.039069504 -0.039069504 0.0 -0.039069504 0.0 -0.039069504 0.0
-0.039069504 0.0 0.039069504 0.0 -0.11720851 -0.039069504 0.039069504 -0.42976454
-0.039069504 -0.039069504 0.039069504 -0.35162553 -0.07813901 0.0 -0.039069504 -0.07813901
-0.039069504 0.0 -0.039069504 0.0 0.0 -0.11720851 -0.039069504 -0.039069504
0.0 -0.039069504 0.0 -0.039069504 -0.19534752 0.0 0.0 -0.39069504
-0.07813901 -0.039069504 -0.039069504 -0.42976454 -0.07813901 0.039069504 -0.11720851 -0.19534752
-0.19534752 -0.039069504 -0.23441702 0.0 0.0 -0.39069504 -0.15627801 -0.15627801
-0.039069504 -0.15627801 -0.07813901 0.039069504 -0.15627801 0.0 -0.07813901 -0.39069504
-0.27348652 -0.19534752 -0.19534752 -0.42976454 -0.039069504 -0.039069504 -0.35162553 -0.31255603
-0.27348652 -0.27348652 -0.31255603 0.0 -0.15627801 -0.89859855 -0.42976454 -0.27348652
-0.19534752 -0.42976454 -0.31255603 0.039069504 -0.5079036 -0.07813901 -0.23441702 -0.39069504
-0.31255603 -0.39069504 -0.54697305 -0.46883404 -0.39069504 0.07813901 -0.54697305 -0.35162553
-0.5860425 -0.62511206 -1.0939461 0.0 -0.31255603 -0.7813901 -0.8595291 -0.54697305
-0.5079036 -0.5860425 -0.54697305 0.0 -1.0939461 -0.42976454 -0.31255603 -0.35162553
-0.39069504 -0.35162553 -0.89859855 -0.39069504 -0.70325106 0.11720851 -0.62511206 -0.39069504
-0.46883404 -0.74232054 -0.9767376 0.0 -0.31255603 -0.70325106 -0.9767376 -0.54697305
-0.62511206 -0.5860425 -0.62511206 -0.15627801 -0.9767376 -0.7813901 -0.31255603 -0.39069504
-0.6641816 -0.46883404 -1.2892936 -0.42976454 -0.7813901 0.07813901 -0.74232054 -0.46883404
-0.5860425 -0.74232054 -0.74232054 0.039069504 -0.23441702 -0.74232054 -0.9376681 -0.5079036
-0.8595291 -0.5079036 -0.62511206 -0.19534752 -0.5860425 -1.0939461 -0.35162553 -0.35162553
-0.8204596 -0.46883404 -1.2892936 -0.54697305 -0.89859855 0.0 -0.74232054 -0.31255603
-0.5079036 -1.0158072 -0.62511206 0.0 -0.27348652 -0.74232054 -0.74232054 -0.42976454
-1.0158072 -0.35162553 -0.62511206 -0.31255603 -0.8204596 -1.2111546 -0.39069504 -0.39069504
-0.5860425 -0.46883404 -1.2892936 -0.54697305 -0.8204596 -0.039069504 -0.6641816 -0.35162553
-0.46883404 -0.8595291 -0.74232054 0.0 -0.31255603 -0.8204596 -0.62511206 -0.35162553
-0.89859855 -0.27348652 -0.42976454 -0.5079036 -0.70325106 -1.4065021 -0.35162553 -0.31255603
-0.46883404 -0.39069504 -0.9376681 -0.54697305 -0.70325106 0.0 -0.39069504 -0.27348652
-0.23441702 -0.70325106 -0.46883404 -0.07813901 -0.23441702 -0.8204596 -0.46883404 -0.23441702
-0.62511206 -0.23441702 -0.19534752 -0.31255603 -1.0158072 -1.3283632 -0.27348652 -0.39069504
-0.27348652 -0.27348652 -0.42976454 -0.42976454 -0.42976454 0.0 -0.31255603 -0.23441702
-0.23441702 -0.5079036 -0.42976454 -0.039069504 -0.27348652 -0.62511206 -0.35162553 -0.15627801

sequential_10/dense_10/MatMul_bias f4 [10]
00000000: 18fe c9be 834c 24be 5035 96be 272b 33bd
00000010: 84af 6abe 9510 13be 6568 a1be 1538 76be
00000020: 20a3 83be de54 06be
-0.3945167 -0.16044812 -0.2933755 -0.043742325 -0.22918516 -0.14361794 -0.3152496 -0.24044831
-0.25710392 -0.13118312
